assets/model.pt (torch, 896602 bytes, 91 tensors)

weight f8 [6, 1, 9]
0.17806362875873086 0.286074603081232 0.09507174639852584 -0.20413475580235174 -0.014196904680997493 -0.017018981325971405 0.14742658158932298 -0.08658776761543634
-0.3616685568696525 0.13642945921563973 0.04214189871036596 -0.00020385481601400767 -0.21166042197208995 0.22160387984576443 -0.2929690489547557 -0.3350073291033427
0.10883308497817028 -0.02360453693056703 -0.17192561390873246 -0.27668220844995145 -0.07587606439984422 0.0016531557723813073 0.12021072958323438 0.11519897705059623
-0.08894499850550724 0.216006450702399 0.06828924713736888 -0.3137820566693546 0.1374728514377581 0.011557910822456222 0.02075853796431277 -0.21908439620007497
0.11218258182042463 0.28058663197555117 0.0031405824551551205 0.22830902500051123 -0.2977316754390374 -0.23782679319441283 0.17744711394371432 0.19594694028334433
0.005025269429923182 0.2996775183310426 0.046571364761205436 0.3028417026708441 -0.13306447632803087 -0.1786899172477958 -0.05079938844016479 0.226888378756618
-0.08861988207310045 -0.3173046696739249 -0.15352789255396132 0.09279018490721411 0.10220076976731064 0.34670034481164785
00000000: 551b 10fb c9ca c63f fccd 1cda 0b4f d23f
00000010: 7426 8e39 9f56 b83f 34f3 1272 1621 cabf
00000020: 6179 794a 4413 8dbf 903b d380 6c6d 91bf
00000030: 285d 3ecd dfde c23f a356 24ae 9d2a b6bf
00000040: 80c9 efdf 9325 d7bf cb64 c540 8576 c13f
00000050: 2a36 8179 9f93 a53f b6cb 2b89 3bb8 2abf
00000060: d224 1d4f b017 cbbf c758 4d14 845d cc3f
00000070: b90e 0041 01c0 d2bf 9dd3 9a94 c270 d5bf
00000080: 533b b42c 7cdc bb3f b2b4 9da8 c92b 98bf
00000090: da96 8a94 a801 c6bf bd5d 2b4b 29b5 d1bf
000000a0: 6382 251f 9d6c b3bf 5c87 907e d615 5b3f
000000b0: dd33 3060 21c6 be3f f807 f71e ae7d bd3f
000000c0: fc52 b973 19c5 b6bf 9cf4 be70 19a6 cb3f
000000d0: 239b 1f73 677b b13f 15db dd55 0115 d4bf
000000e0: 37ab 81dc b598 c13f a2b5 f087 acab 873f
000000f0: d290 ade6 b941 953f 1e22 5f1e f50a ccbf
00000100: 497d 1968 ffb7 bc3f ebe7 01a2 21f5 d13f
00000110: d6d5 ed5d 47ba 693f bd21 e1e9 3a39 cd3f
00000120: e99c 3f28 090e d3bf adf7 70bd 1b71 cebf
00000130: 0e34 9447 96b6 c63f 5355 2212 ca14 c93f
00000140: 6386 ae7d 6095 743f 5a02 259d ea2d d33f
00000150: 88af 28b1 33d8 a73f d084 352a c261 d33f
00000160: 104c 0bbb 4108 c1bf 2f24 5aab 4fdf c6bf
00000170: e7bd 03a0 6002 aabf c612 4dab ad0a cd3f
00000180: 0883 47e7 caaf b6bf 9a86 c73e b84e d4bf
00000190: 2e83 c54e cda6 c3bf 8ef7 90f9 18c1 b73f
000001a0: e1d0 c663 d429 ba3f bf96 9ea4 5630 d63f

weight f8 [6]
1.015475907392383 0.9983246141307883 0.9891996267328308 0.9656575279870526 0.9348808138887359 0.9588438683583629
00000000: f404 42aa 633f f03f 4979 0f76 46f2 ef3f
00000010: a50d c1f9 85a7 ef3f 29e6 ba9d aae6 ee3f
00000020: 62eb 292b 8bea ed3f b037 1256 d9ae ee3f

bias f8 [6]
0.019332353456249847 -0.0074800206047692585 -0.020778028350618632 -0.024243785251476645 0.013855231056651039 0.03201649759270907
00000000: 62b0 6547 dccb 933f 772a efbd 5ea3 7ebf
00000010: eb0e f7e0 d546 95bf 2336 25e3 5cd3 98bf
00000020: df7c 22a2 2160 8c3f 1eb1 2f64 7764 a03f

running_mean f8 [6]
-7.413620691871138e-05 -3.2443335454913265e-05 6.123339230192948e-05 6.442326307050343e-05 5.563947808248112e-05 6.084088879155122e-05
00000000: 5171 2f56 326f 13bf a2b3 9c84 7802 01bf
00000010: 7766 60ab 4d0d 103f e293 613b 5fe3 103f
00000020: e9ac ebe8 cd2b 0d3f 8b42 5d05 ede5 0f3f

running_var f8 [6]
0.2692050495726167 0.21190583509776448 0.24705293964882244 0.23119381375140663 0.4288680689424851 0.20127197131881663
00000000: d246 f5d0 a73a d13f afc9 c9fb ba1f cb3f
00000010: b30f 1644 6e9f cf3f 76c6 8c46 c297 cd3f
00000020: 8006 9a0e 9372 db3f de37 35ab 47c3 c93f

weight f8 [6, 6, 9]
-0.13591756199181748 0.03603044169216334 0.10383957482217018 0.0605268503163118 -0.056403592010995374 -0.008601359910529262 -0.03845540654901228 0.13572329567486802
0.052516427851029154 -0.060515874850528624 -0.15964910341510458 0.015487977184009967 -0.19637663608800685 -0.07431032735980875 -0.13221153383071027 -0.17794034117980775
0.03311361930420324 -0.14964069286690032 -0.05114935382571051 -0.12059238854128791 0.019248319962272678 -0.14772808137211837 0.08919196213096009 -0.009183829245892514
0.09224037387104603 -0.03695709313179392 0.1417269762323085 0.03073116146748087 0.04512005533434432 0.04374757464921421 0.0925996217592883 -0.04589385531878886
-0.03899766933512681 -0.058566305582982515 -0.06486054334326817 0.1536408546435568 0.08524782264430414 0.031559597847028394 0.08126624067674604 -0.07373022049037264
0.09534965602001497 -0.02308186286637881 0.10003614670603486 0.1180058207414528 -0.08880064879140936 -0.11318034366377175 -0.09012259669270602 0.014295732825224968
0.055286380829412965 -0.10410241386489018 0.09404746212278473 0.1700854531238413 0.06838900151757442 0.051924284651571805 0.15064876815606723 0.16189566356784818
-0.02301003099902526 0.03539508380055103 -0.020184778583212652 0.07762854231008505 -0.042751594106759404 -0.04280658658980313 0.17290388697658726 0.12402098458683279
0.04257188329226511 0.050912491463734395 0.006433796569993018 -0.02203931003302656 -0.019942738920833033 0.05676541220385188 -0.14899080679824683 0.025034241290024347
-0.09745878121652414 -0.074220406493699 0.018571088596985853 0.10116549255409901 0.11748203054567481 0.0862721716985713 -0.04026325843899555 0.13160892867177224
0.1809259407199305 0.09644043118369917 0.11269242536525588 -0.04941219562883717 0.043509970668939434 0.011056120665345273 -0.04436095952441162 0.03795973081907272
0.09150886520442564 -0.06446691755869247 0.0648500188641668 0.06895751318118927 0.002727282033790456 -0.09123977319644719 0.08151136370690501 0.03382616246793119
0.1425125861241893 -0.09676347838973533 -0.07156786904494702 0.07813888973421199 -0.09373861879689396 0.11743253603313294 0.04991029887462291 0.0710775240467208
0.06642586363880523 0.005392122058989264 -0.07931732044183995 0.04020691162999885 -0.13506183093640017 -0.030940053963809652 0.009366560105841576 0.0006713509710490924
0.20207984706278606 -0.0024400935656056434 0.03565279346704403 -0.05543141106262091 0.04212190133666736 -0.02637850814827037 0.05688340195135476 0.02699126286075965
-0.08326409887812058 0.05870077618637715 -0.05560180196369602 0.11703105653456686 0.12301732356581274 0.12133473161456397 0.10536715812167892 -0.12194622295937801
0.13602613355658683 0.04262174258820408 0.08417756900438067 0.06111769594113891 -0.070199798863567 -0.10635329996162847 0.04214693952601581 0.10824244144569842
0.16349019569149692 0.016058637552569404 0.006494690841211877 0.08700967142770956 -0.07057425522653374 0.020532839634862483 -0.0007142349774097564 -0.13790602730097562
0.1274757592429353 0.048398610963339896 0.04612556560694798 0.12170913294523762 0.01884846802165102 0.10199840575862967 -0.08905984723948611 0.008447911133751842
-0.12481394280609057 0.07880229082972351 -0.025110571123967227 0.02658388287308246 -0.04494249691679077 -0.11426378784234918 0.009390653808795673 -0.04996016923002609
0.2074626954630896 0.03636221540190023 -0.11375414438023637 -0.047829868306817847 -0.18981691859397887 -0.16187275494149114 -0.19862529188239478 -0.15988457878884543
0.03117030138386988 -0.13423588686150556 0.03449514216611108 0.014584199052093903 -0.1290470758655295 0.06710386611581255 -0.031683569524557385 0.06294258807349112
0.06769606742259451 0.09006007211846943 0.15647571293232812 -0.06094120139818543 -0.09633187745171011 0.10906060585265717 -0.04164121253369016 0.05407473099564807
0.05377999825452909 -0.10629109707965989 0.032737223868705104 0.013478598702976009 -0.01912331943056665 -0.058097378713725195 0.00037980525559305794 0.06865861161889182
0.08096050802194163 0.04956692061199713 -0.16428142681281677 -0.0848255367540993 -0.06733581567501871 0.08180309771141753 -0.0568617190137547 -0.020258007397638497
0.06897867945039363 -0.10081705500471143 -0.05389429354456819 -0.055848827495816565 0.0736777383428449 -0.025003245720740527 -0.10718721794218304 -0.017336884655205956
-0.06118731591456018 0.005905804035043375 0.0008432714401834105 0.0720198079171969 -0.013404456426151706 0.10084269190682474 0.05932539803719334 -0.03252232929327699
-0.10901941638778173 -0.0136674029940637 0.02714667990753321 -0.1759258594530515 -0.13939197084354119 -0.04859562173747837 -0.03964989602911509 -0.08107967293753549
-0.1509583793811948 0.04728981845483789 0.08980570230560189 -0.10394037561584489 -0.04739845595614846 0.030986230320108606 -0.0756681831339506 -0.05528788897330751
-0.029177051442243595 -0.15376475726310693 0.081650491590792 0.10909993790684533 0.08246521533035826 0.04839479432934896 0.08103403317083768 0.06185166189132354
0.07411882713374975 0.003489105907336337 0.09027877873674572 -0.12181090241012611 -0.06726371369170661 0.000548202426419341 -0.059261748106191864 0.02038555418047961
0.09067958761741463 -0.015805118491106024 0.12147529963113991 0.013366679555367612 -0.0601899451685709 0.0838022425036776 -0.007517358241325691 -0.018374666502787167
00000000: fc7b da25 bf65 c1bf a6e0 7401 9572 a23f
00000010: c64a e4f9 3a95 ba3f 74e2 4615 60fd ae3f
00000020: 88d8 207e eee0 acbf 8e81 22fc 969d 81bf
00000030: 14fc f652 6db0 a3bf 7a4c 1d86 615f c13f
00000040: 8eee 3ee8 6ee3 aa3f 0963 bece effb aebf
00000050: d675 00bf 616f c4bf 0463 e41b 29b8 8f3f
00000060: 5926 d99e de22 c9bf 64f3 c369 0006 b3bf
00000070: a47b faba 4eec c0bf 49d0 00c5 bfc6 c6bf
00000080: 4670 edaf 44f4 a03f 99ce 011d 6d27 c3bf
00000090: f031 c983 3f30 aabf 656d ee8c 24df bebf
000000a0: d4af f6e2 d4b5 933f 75d7 18f7 c0e8 c2bf
000000b0: b425 6bd0 48d5 b63f e5f1 1ab2 f8ce 82bf
000000c0: e29e 25ad 109d b73f 7a6a b644 0aec a2bf
000000d0: 5e7a f00b 1c24 c23f 593a e255 fd77 9f3f
000000e0: 2804 1cd4 f919 a73f 829e cb04 1566 a63f
000000f0: 3bff 13db 9bb4 b73f 9ff4 5c3f 667f a7bf
00000100: 5d45 d4a4 80f7 a3bf 55be 401e 67fc adbf
00000110: e7ca 7558 b39a b0bf 3804 03e7 80aa c33f
00000120: a4ff 4f22 cdd2 b53f f97b 4161 9428 a03f
00000130: a8b9 f945 ddcd b43f 2ca7 bbd5 fbdf b2bf
00000140: c672 4ac6 d568 b83f 2042 9198 c5a2 97bf
00000150: ee30 850a f89b b93f 467a d224 a135 be3f
00000160: 1835 6caa a3bb b6bf 3200 9612 63f9 bcbf
00000170: 45ff 6c45 4612 b7bf ab4f a7c7 1447 8d3f
00000180: f22e 271b 7f4e ac3f 09ff fbae 74a6 babf
00000190: 22d3 1696 7e13 b83f 4d9b 5831 5cc5 c53f
000001a0: 4790 ec0c f181 b13f 4bb5 e4e0 d195 aa3f
000001b0: 05dd 3476 7548 c33f 22ae 3142 ffb8 c43f
000001c0: 6ea8 7b0a f18f 97bf a39f b9ee 4d1f a23f
000001d0: 1e4e 918f 51ab 94bf 5d3d 75d2 76df b33f
000001e0: 0baf 1475 89e3 a5bf 08c7 e9b2 beea a5bf
000001f0: 6636 f5ed b621 c63f 6373 d1d8 d6bf bf3f
00000200: 2d56 f05c fbcb a53f 39d8 96bb 3311 aa3f
00000210: 223e b71d 535a 7a3f 50e4 450f 7991 96bf
00000220: afa0 d48d de6b 94bf fe43 eb29 5b10 ad3f
00000230: 3033 4d79 2112 c3bf 2fba 7b7e 93a2 993f
00000240: 0d72 0806 0ff3 b8bf 5915 96ca 1b00 b3bf
00000250: 7d60 b3a8 4c04 933f 10eb 0052 fbe5 b93f
00000260: 65b4 0f67 4d13 be3f 1311 00dc ee15 b63f
00000270: cba6 73c4 629d a4bf bde0 40b6 8fd8 c03f
00000280: fcef 31cb 9428 c73f 5935 f2f1 51b0 b83f
00000290: bd60 7329 69d9 bc3f a4b2 7f28 8e4c a9bf
000002a0: 1b62 255a f046 a63f 1b22 6d65 97a4 863f
000002b0: 3ac8 c0cc 7ab6 a6bf 88a2 dd34 756f a33f
000002c0: 44da 58ff 1f6d b73f bea8 9666 e780 b0bf
000002d0: f4a4 2ac6 029a b03f 013c ed17 33a7 b13f
000002e0: e411 8c64 8657 663f 8223 f961 7d5b b7bf
000002f0: e69e 5fc1 eddd b43f 980f 19ab a951 a13f
00000300: c5fc 5538 da3d c23f d190 21c7 7dc5 b8bf
00000310: be11 fe98 4552 b2bf d645 f407 e900 b43f
00000320: cad8 1a0e 41ff b7bf 5ea7 bf05 0f10 be3f
00000330: bad8 ccba d78d a93f d4e5 42f9 2232 b23f
00000340: eaed ef0f 4901 b13f 48f0 63be 0c16 763f
00000350: 8ad6 4dd1 234e b4bf a94a 0c15 0096 a43f
00000360: e6a4 67c1 b449 c1bf 0ce7 a4df bfae 9fbf
00000370: bd15 a56a c62e 833f 1b5c 7e3b b3ff 453f
00000380: 515d 289f c0dd c93f 71d5 0742 3ffd 63bf
00000390: 186c e73b 1541 a23f 0ac4 5e83 8161 acbf
000003a0: fd65 5f79 0091 a53f 02a1 41b7 f702 9bbf
000003b0: eef0 213e d21f ad3f 110e 0ffd 98a3 9b3f
000003c0: c0c8 9cc5 cb50 b5bf e1cb f033 070e ae3f
000003d0: b0c3 10e2 d677 acbf acaa 6e50 bff5 bd3f
000003e0: 607e 8e35 107e bf3f 174b 2700 cb0f bf3f
000003f0: 957f 3492 57f9 ba3f 6433 7b1f de37 bfbf
00000400: 6e70 83e9 4d69 c13f a39c 075d 84d2 a53f
00000410: b03b ee41 a98c b53f 0f52 8c92 d14a af3f
00000420: 4207 4e30 9df8 b1bf c928 2849 f839 bbbf
00000430: 740d c89d 4894 a53f 8268 0cd2 c6b5 bb3f
00000440: 5816 db29 3fed c43f 5b29 6dec ac71 903f
00000450: 6290 2b4c 2d9a 7a3f 61bc 370d 4446 b63f
00000460: 7a34 2386 2711 b2bf 352a e78a 8f06 953f
00000470: 6e2c 50ef 6f67 47bf 9ae8 969a e7a6 c1bf
00000480: 3497 7d2c 2051 c03f 65cc 84e6 b3c7 a83f
00000490: 092b 9527 c59d a73f e5d2 9f69 5428 bf3f
000004a0: 1047 ee46 034d 933f 543a fa48 911c ba3f
000004b0: efc4 474b a0cc b6bf eed3 4f70 234d 813f
000004c0: 7edd 6f7a cef3 bfbf c4aa f60d 632c b43f
000004d0: c997 0be7 95b6 99bf c58e 292e ce38 9b3f
000004e0: d298 eaf4 b302 a7bf 9364 e63f 6440 bdbf
000004f0: c384 f937 683b 833f 0d24 e419 6194 a9bf
00000500: 88b5 133a 238e ca3f 732b ec7b 119e a23f
00000510: a2c7 e5d9 fd1e bdbf 98ae 4c10 287d a8bf
00000520: 5858 cbb8 eb4b c8bf f926 4b16 3fb8 c4bf
00000530: 298c 65b6 8d6c c9bf a833 840e 1977 c4bf
00000540: 9d63 3384 1beb 9f3f 4486 023c a42e c1bf
00000550: c5d9 f2e6 58a9 a13f 9f9d bc0f 52de 8d3f
00000560: 1652 3e55 9d84 c0bf 510f 670e b82d b13f
00000570: 7b66 db2d d438 a0bf 541e 4d65 011d b03f
00000580: cad9 a58b 8754 b13f 2f9a 6c48 2d0e b73f
00000590: 2dd1 d46a 6507 c43f 48e3 f765 af33 afbf
000005a0: dfa5 37b7 34a9 b8bf b64a 6b57 65eb bb3f
000005b0: d4f7 fe3b ff51 a5bf 0f26 55e2 aeaf ab3f
000005c0: 6441 5d4b 0d89 ab3f 5827 d0b1 e435 bbbf
000005d0: 9a7e c1f3 eec2 a03f 9a63 00e5 aa9a 8b3f
000005e0: bc54 2e3e 1095 93bf ec17 1e8b f0be adbf
000005f0: 07a4 d026 13e4 383f 8ded 7d5b 9c93 b13f
00000600: e6c6 38ee d3b9 b43f a7e1 fbdd d560 a93f
00000610: 7829 c07d 2c07 c5bf ff78 395a 20b7 b5bf
00000620: eb76 2c86 eb3c b1bf c4cc 613d 0cf1 b43f
00000630: f0e8 1daf fa1c adbf 5f1a 05dd 83be 94bf
00000640: 5a57 5c34 96a8 b13f 13d0 1f82 25cf b9bf
00000650: 2e0d 6e68 0898 abbf d39c 3aaf 3798 acbf
00000660: 1332 a054 8bdc b23f ff60 a86a 739a 99bf
00000670: fb63 9c1b 9f70 bbbf b43d 6fa2 c2c0 91bf
00000680: c1ec 90a1 f153 afbf 8458 fe32 af30 783f
00000690: 8331 eda0 dfa1 4b3f eb26 abdf e36f b23f
000006a0: 7090 c4af cb73 8bbf 5ac9 c79f d3d0 b93f
000006b0: c9aa c808 e65f ae3f daa2 6849 c4a6 a0bf
000006c0: 2cb8 034c b2e8 bbbf d7c9 0bc7 a7fd 8bbf
000006d0: 2d62 97d9 56cc 9b3f e88e 6f12 bd84 c6bf
000006e0: 198b 0c9a 98d7 c1bf 25b9 2e7c 86e1 a8bf
000006f0: 343e 78bd fd4c a4bf 6818 a32f a3c1 b4bf
00000700: 17ec 3fab 9a52 c3bf 4a05 65ff 5e36 a83f
00000710: 6699 65aa 81fd b63f c706 0122 d69b babf
00000720: e2d3 6c44 9c44 a8bf 5f9e 67b7 daba 9f3f
00000730: 6676 e873 fd5e b3bf 22ae 02b6 b14e acbf
00000740: 83dc f3c6 96e0 9dbf 5978 dc45 90ae c3bf
00000750: cbb3 15ef 0be7 b43f 4e37 4e39 f9ed bb3f
00000760: d3c7 e6ba 701c b53f f9e4 e1d5 33c7 a83f
00000770: 10ec 547a a5be b43f 538f 0d62 05ab af3f
00000780: 59ad 8e92 73f9 b23f 3f10 7578 2f95 6c3f
00000790: f877 3292 821c b73f 3dd2 25d2 ff2e bfbf
000007a0: 5a6d 83da 3138 b1bf f88d 1cbf a7f6 413f
000007b0: 3c2e 0a4c 8e57 aebf 4261 1062 f3df 943f
000007c0: ac47 3b07 c736 b73f e864 1d8c 372f 90bf
000007d0: 1103 3057 0119 bf3f 340f 5f5c fd5f 8b3f
000007e0: 5016 186c 37d1 aebf 667f e252 1074 b53f
000007f0: e9ec c77c 85ca 7ebf 5b48 d1fe ced0 92bf

weight f8 [6]
0.9346416356426244 0.9755481046685195 0.9536753309352235 1.0194927496655004 0.996411644574998 0.9734393782914696
00000000: a414 5293 95e8 ed3f 043c a7a8 b037 ef3f
00000010: e6cc ab20 8284 ee3f b628 25a1 d74f f03f
00000020: c0b3 59ac 9ae2 ef3f 5cd0 cc56 6a26 ef3f

bias f8 [6]
-0.011831604789942784 -0.04895422662686541 0.008999066061549177 -0.012740042736361699 0.004843416944747248 0.06427584705369571
00000000: a656 0e1d 2b3b 88bf 3c0a ba44 8710 a9bf
00000010: ad61 6e33 1a6e 823f 5ff1 3797 7317 8abf
00000020: a7ab 0ed6 b0d6 733f b0b0 04c5 6174 b03f

running_mean f8 [6]
-0.05775680843408602 0.37536709721910233 0.2719807019897561 -0.2168960923788947 -0.06560799561422981 0.020176855361537335
00000000: 5d04 b1e6 4c92 adbf 583b a3b7 0306 d83f
00000010: 9e1a 0cbf 2168 d13f d7e2 b24b 40c3 cbbf
00000020: 28ec 8483 afcb b0bf fcdb a7d7 3da9 943f

running_var f8 [6]
0.20710347489132133 0.3711815063090729 0.5631259478546488 0.30289594352731963 0.4519277844893044 0.4844608523369465
00000000: 4de9 c5dd 5d82 ca3f 208f 9e13 70c1 d73f
00000010: 2b12 32b5 2005 e23f 1e9e e2aa a562 d33f
00000020: 5442 a283 62ec dc3f a5af 3e17 6801 df3f

weight f8 [6, 6, 9]
0.0036430841699217607 0.06272539194537276 -0.04494325032278919 0.06504530949533956 0.05453546285443753 -0.06221675737680775 -0.11009090380598409 -0.09765354806276517
-0.03382685718509365 0.09291265270888342 -0.0750045478069292 -0.02769965625092615 -0.14686165274354826 -0.006685469350120937 0.010541618586738999 -0.12643459452403027
-0.018680747578953976 0.0555645781540081 -0.08065314436748754 -0.015658766707123805 0.027027318257215917 -0.11512503324264683 0.05805231140411395 -0.14083269713027377
-0.1350043009409611 -0.04622067432641411 0.020635635513081983 -0.121036040703622 -0.1253010272913677 0.1269372567722147 0.04997075729666648 0.15903864763707506
0.07815494063166313 -0.02856226468442487 0.0018339679695171572 0.15440586051084537 -0.09040955040628473 -0.05520704200022434 -0.03215372128075151 -0.14174639973956768
-0.05814365825882808 -0.1176391847318316 -0.07220257611639117 -0.07968336501840265 0.022869708017772345 0.03311091894100869 -0.005040192529495344 -0.02083472992041138
0.07373557122767364 0.01917787376578314 0.0673108747258718 -0.07817554436374868 -0.05972640799416691 0.01930251451159329 -0.1076273166270345 -0.05479122742601973
-0.09100605809959053 0.09027931089974407 0.05092756074548058 -0.06917102398657153 0.062403952013888174 -0.027297102011719174 0.061517887167648756 0.0409720860351642
-0.09843919023071694 0.062425986362424565 -0.07996769422698739 -0.024190531523738408 0.10742397773427392 -0.08964000968511546 -0.046531594130331394 -0.09459521964010008
0.004213087797612331 -0.03507321724079835 0.02566615134582322 -0.01394760627321752 0.04932054078730314 -0.07883508516920087 -0.022320777501551984 -0.10831815972986344
0.1279363805822026 -0.08746378216129677 0.09981535904070976 -0.050810526421309496 -0.07017260434592121 0.12589337250255417 0.06753509366941977 0.001428008718466284
0.10655560878263812 -0.015969854468714847 0.1410692878677678 -0.1026171317485849 0.11977033756155768 -0.09573946753840626 -0.05581513355359157 -0.004741639636863738
-0.12141928812477527 -0.130992599411083 0.01783105606012905 -0.0726772719412672 -0.015069236156891772 -0.07153330533366968 0.1036165373604515 -0.0390809693603626
-0.054611061538978115 0.023447324108778436 -0.17452843877535795 -0.10675612676361089 -0.005670803922070085 0.01203939811464775 -0.11504918630482777 -0.015198570552241842
-0.17135401213114373 -0.12592337231192532 0.03259870041999047 -0.08147730265613773 0.09408742432349614 0.042745361933779306 0.038168746530497594 0.11649452778374558
-0.0640959572990644 0.13052884513739324 0.009902994035741866 -0.026926465384462944 -0.06997816200561299 -0.0925472070745596 -0.06793027103317588 -0.01084306826056106
0.0297369501381401 0.07863546974865268 0.06627516168385732 -0.003792292648058406 0.12503455720935483 0.11610054165989704 0.025751078037316986 -0.05464412580198335
-0.1492284491286843 -0.12343755303820743 -0.144561243804813 -0.10430317017199381 -0.06051661638608802 0.10094766402510795 0.15892599497608798 0.13096119836974043
-0.04659860614721261 0.10488066477061513 0.07119677259633203 -0.03127075145756708 -0.10750613855104714 -0.006706257062461781 0.061479076152820424 0.10681899611928808
-0.03384580377594373 0.009017750437459419 0.007358203530672436 0.17547591087942063 -0.07079842961898343 -0.06382657078325989 0.13331400242404243 -0.1127706953344529
0.1016094691392511 0.046149130325502725 -0.0271701193830274 0.04993556553189706 0.022406544912118822 -0.09206147677762061 -0.04694051536203572 -0.05485762897930969
-0.10621003190651498 0.07081440851466965 -0.0037636330299778815 0.09604348069948372 0.010228786356508776 0.0920609991528991 0.14466477401213515 0.058382151754269515
-0.059919462442266966 -0.10640500234110176 0.02127412723934862 -0.060149693569788505 -0.0059904931471320534 -0.10092637083061466 0.0385030593800969 -0.03775244074467681
-0.044930496485793225 0.1673378605284174 0.028653365361412608 -0.0631302229875363 0.10622097580155793 -0.07514132768460154 -0.0920333416734955 0.054746086969635975
0.0774444657745643 0.084098994535108 0.06082823975775595 0.07032489787633392 -0.082384702179593 -0.09936246617258167 0.02629034033777522 -0.04816391652130583
-0.005014659825300161 0.10641080178977584 0.12912958077130854 -0.12685449754770228 0.012472659294114903 -0.06550014167436763 -0.09153749194405135 -0.09302640847832946
-0.10946454862143888 0.0010778543677389986 -0.031112167151647375 0.11127562858453564 0.05129383696907096 0.14229981580672532 0.018019575759525636 -0.060697364702074645
-0.07281879392545172 0.1611425739688589 -0.007267260255754032 0.05567515399913402 0.008471617099005591 -0.09873518770211333 0.018958664231473812 -0.029031868865074605
-0.021597907213424986 0.11182139541607317 0.07964432736332795 0.10656862888246638 0.07359802238192474 -0.006950862276307268 0.03833692692832008 -0.1270306001360355
0.04954751428122921 -0.02241586564152552 -0.031592466913866434 0.016112664899035428 0.0735721455068881 -0.10114965230592043 -0.059658096037938264 0.12646243797676002
0.07173507846836397 -0.07342128096322904 0.10584816979931817 0.008387072810895358 -0.09519106263293341 -0.09157931474688022 -0.06194206708246202 -0.0534557518755319
0.07089982798305448 -0.00757881698866529 -0.09192143251454443 -0.04249513981719457 -0.026134728265099674 0.0509103775072293 0.09218762951459951 0.0849127248132196
00000000: fd75 b9eb 19d8 6d3f 91be 0873 c50e b03f
00000010: 8ae8 9f3c cd02 a7bf 1d6a 0a35 cfa6 b03f
00000020: 4c33 dd7a 12ec ab3f fea2 64f4 dfda afbf
00000030: 710c 6fdf ea2e bcbf c197 44ab d2ff b8bf
00000040: d841 acfa c051 a1bf 3bee c4a4 1fc9 b73f
00000050: aecc e17f 7f33 b3bf 762a d576 4c5d 9cbf
00000060: 59f7 c8d5 5ccc c2bf 8691 7903 3962 7bbf
00000070: d397 9d18 d896 853f 5428 4840 022f c0bf
00000080: db6e aabf 0b21 93bf b699 f9db f572 ac3f
00000090: bbbf 6039 afa5 b4bf 1375 9c0b da08 90bf
000000a0: 5aa5 0da0 0cad 9b3f 8463 ba8c d578 bdbf
000000b0: 7331 e055 08b9 ad3f 57e5 304a ce06 c2bf
000000c0: b62d ae28 d247 c1bf 7414 4379 3caa a7bf
000000d0: 59b9 a40e 8221 953f 049a 75cc 37fc bebf
000000e0: 7f91 2f33 dd09 c0bf d984 3de3 7a3f c03f
000000f0: 15ea b060 c495 a93f f75d 33df 605b c43f
00000100: 15a8 0852 f601 b43f 5590 e022 6d3f 9dbf
00000110: 94fb dc1c 380c 5e3f 8037 9a3c 92c3 c33f
00000120: e0b5 3d8e 1425 b7bf b5ba ccef 1844 acbf
00000130: e9e8 b0da 7376 a0bf 1385 9afb be24 c2bf
00000140: f307 626d 01c5 adbf dcbc 2603 9a1d bebf
00000150: 925a 1b37 de7b b2bf 960d ca06 2166 b4bf
00000160: e587 0520 286b 973f aef9 fb13 eaf3 a03f
00000170: ca8e 4661 06a5 74bf 6742 840e b355 95bf
00000180: 5b88 f99a 55e0 b23f d7fe 8552 5da3 933f
00000190: a6de 9c15 493b b13f 04a9 63fe 4f03 b4bf
000001a0: 8ac2 15b2 7594 aebf 483f 3bd2 09c4 933f
000001b0: efc0 11bd 768d bbbf 520e ce83 980d acbf
000001c0: da8e 464b 2c4c b7bf 89df d17f 8b1c b73f
000001d0: 54d9 bb5f 2d13 aa3f 7368 da35 31b5 b1bf
000001e0: 23e4 142a 69f3 af3f 39e4 a981 c5f3 9bbf
000001f0: 6515 02c3 457f af3f adcd 2313 4bfa a43f
00000200: e386 af8e 4f33 b9bf 5ebe b183 4cf6 af3f
00000210: 2302 7147 c378 b4bf a2ba 1117 67c5 98bf
00000220: c8c8 2c47 2380 bb3f dabc 02ce a5f2 b6bf
00000230: 7481 0a36 fdd2 a7bf 8f50 b66e 6437 b8bf
00000240: 140e e524 be41 713f fd8a 07e2 1df5 a1bf
00000250: 0df7 9342 3a48 9a3f 685a 6806 9090 8cbf
00000260: 39ae 67bb 8a40 a93f 663f 9440 892e b4bf
00000270: 51d4 8f05 42db 96bf 6e48 9a29 bdba bbbf
00000280: 8dda 4825 3860 c03f e69c f7c3 0664 b6bf
00000290: 8ce5 b7d6 7f8d b93f 864c 8b5a d603 aabf
000002a0: 40aa bdf0 d4f6 b1bf 303f d726 461d c03f
000002b0: e777 a4da fa49 b13f 4e3a a1af 8065 573f
000002c0: d642 ed76 3a47 bb3f 4ff8 a8ca 665a 90bf
000002d0: 6258 eef4 8e0e c23f 4197 dec8 1d45 babf
000002e0: db96 dbd2 44a9 be3f 828f 03ba 6182 b8bf
000002f0: af16 781a cd93 acbf b448 b732 f86b 73bf
00000300: 8d79 999f 5515 bfbf 708b 3e91 5dc4 c0bf
00000310: e78c 86ea 4d42 923f 3376 264a fa9a b2bf
00000320: e5a3 c1a3 9edc 8ebf eb9e fbb6 0150 b2bf
00000330: e7b3 4907 9d86 ba3f d9f3 98ba 6b02 a4bf
00000340: 2298 9e26 fbf5 abbf 7456 e748 9302 983f
00000350: 848c 61a8 f256 c6bf 37eb 1899 5e54 bbbf
00000360: fb75 32d6 443a 77bf 54d6 53a9 1ca8 883f
00000370: 5253 9c0c dd73 bdbf 471c be9b 6d20 8fbf
00000380: 9321 12a3 edee c5bf 39dd f0ce 411e c0bf
00000390: f054 64e0 c6b0 a03f 703f 464e b2db b4bf
000003a0: af2d 6f0a 1d16 b83f 2f5e 1f57 b8e2 a53f
000003b0: 7cd5 279c da8a a33f a880 feda 95d2 bd3f
000003c0: 5ac1 67b8 9768 b0bf 4b5e 8650 2bb5 c03f
000003d0: a8c1 205c 0548 843f f87f e480 9c92 9bbf
000003e0: 6e90 3fbd 16ea b1bf ecab b87b 2cb1 b7bf
000003f0: bbf3 7ed4 e063 b1bf d20b 8afc e334 86bf
00000400: b2eb 4df1 5c73 9e3f 8245 e042 7421 b43f
00000410: b322 f8b3 68f7 b03f 6b07 cf9c 0311 6fbf
00000420: 2bc1 0ae3 2101 c03f 1126 7add c3b8 bd3f
00000430: 5630 0798 7d5e 9a3f d7de 799a 50fa abbf
00000440: ddfb 51f6 ea19 c3bf cdb9 657d 9a99 bfbf
00000450: 9a93 349b fb80 c2bf 8c01 c2d0 9cb3 babf
00000460: a853 7cb0 08fc aebf 636e 98c3 b4d7 b93f
00000470: 190a 74df af57 c43f 2581 0528 56c3 c03f
00000480: 6707 e2c2 c5db a7bf 032b 2c91 75d9 ba3f
00000490: 6eca e1a1 f339 b23f d0c6 a94d b802 a0bf
000004a0: 8d2c 32b5 8585 bbbf a281 302c 0578 7bbf
000004b0: 8de7 ed7a 2f7a af3f 4484 ec5e 7d58 bb3f
000004c0: 6326 a6b8 3c54 a1bf 2ff3 b2f9 e577 823f
000004d0: a744 58b8 a223 7e3f 0941 3ba1 fe75 c63f
000004e0: 615a d28b d81f b2bf 1d43 212a f056 b0bf
000004f0: d74b 41e8 6e10 c13f 9d9d 6850 8ade bcbf
00000500: d3c0 ea02 1403 ba3f d147 f9da dba0 a73f
00000510: 86cd b6d8 7bd2 9bbf 53c8 bb89 2791 a93f
00000520: a7a3 74c6 bdf1 963f 5c39 fb47 5791 b7bf
00000530: 64b6 ac54 9608 a8bf 01f2 cd94 4c16 acbf
00000540: 56ac 8ba5 9430 bbbf 85f5 a7a0 e420 b23f
00000550: 5b8f e418 e9d4 6ebf 8529 9938 4e96 b83f
00000560: ab24 0877 d4f2 843f ff49 9944 4f91 b73f
00000570: 07f7 a114 6084 c23f fecd e8f0 43e4 ad3f
00000580: 3eb8 2a87 c3ad aebf ea92 2fb5 5b3d bbbf
00000590: becc f982 e2c8 953f a14a 7ecd f0cb aebf
000005a0: 6d25 76c2 7c89 78bf 4b7e 0586 4fd6 b9bf
000005b0: 8fbb aa49 acb6 a33f a764 afb4 4954 a3bf
000005c0: b8c1 ff49 2101 a7bf a513 2db7 536b c53f
000005d0: 2026 97cc 4e57 9d3f 4de3 1e63 4d29 b0bf
000005e0: ac86 3741 4c31 bb3f fdbe fb48 763c b3bf
000005f0: fe16 a140 7f8f b7bf abb3 3cda ad07 ac3f
00000600: af08 c287 66d3 b33f 1c9f 27ff 8287 b53f
00000610: 1c99 dd08 e124 af3f 5a30 7900 d000 b23f
00000620: 4553 8df1 2917 b5bf c540 a98e d16f b9bf
00000630: 004a cedf daeb 9a3f 14d1 9cdc f0a8 a8bf
00000640: 9a23 347f 408a 74bf 63d3 a001 bd3d bb3f
00000650: 6cf2 2d6f 5187 c03f bcb0 28a7 c43c c0bf
00000660: 8457 19fe 438b 893f 4cf1 5f06 9ec4 b0bf
00000670: b7ef 4146 006f b7bf c229 1426 94d0 b7bf
00000680: fb85 6660 de05 bcbf 1034 9850 d9a8 513f
00000690: ed2f b231 dedb 9fbf c7c7 9c41 8f7c bc3f
000006a0: de7a 8990 2f43 aa3f 53f0 8e5f e136 c23f
000006b0: 85c1 4c42 b973 923f 4f95 b298 b913 afbf
000006c0: 95a8 71a2 40a4 b2bf dc41 98e2 51a0 c43f
000006d0: 466a 1452 46c4 7dbf de88 402b 7481 ac3f
000006e0: 8d61 1333 9159 813f 991e 2592 b546 b9bf
000006f0: f46c 666b e669 933f c6de 44bd 87ba 9dbf
00000700: d426 9304 c31d 96bf 401c 4eb4 53a0 bc3f
00000710: 9960 5615 9263 b43f c46a d4e7 1448 bb3f
00000720: 9b3e 2eeb 51d7 b23f 0de9 7de2 8178 7cbf
00000730: 08c6 c5ce e5a0 a33f a077 96e8 8942 c0bf
00000740: c637 dfb2 4a5e a93f 5c16 5e47 2ff4 96bf
00000750: 73d9 6348 e32c a0bf 68ca 2ba3 d67f 903f
00000760: 5340 d9c6 9fd5 b23f e8db a790 f1e4 b9bf
00000770: 8161 d986 818b aebf a72c a4d1 eb2f c03f
00000780: d463 ffe7 3a5d b23f 6d47 91b0 bccb b2bf
00000790: a528 a19b dd18 bb3f c7aa 74db 3d2d 813f
000007a0: 8743 e104 715e b8bf f2f3 d3f1 bd71 b7bf
000007b0: c74b bbe0 deb6 afbf e54f 2d64 8d5e abbf
000007c0: c7af 7aba 7d26 b23f 2f2e bd31 f70a 7fbf
000007d0: 8891 73ba 2988 b7bf d3f1 8147 ecc1 a5bf
000007e0: 04f9 c0ec 0fc3 9abf 2554 d7cc ec10 aa3f
000007f0: 7b68 dcc5 9b99 b73f 5447 1620 d7bc b53f

weight f8 [6]
0.9849115279419118 1.0193809955872692 0.905345609065887 0.935300618999305 0.9406269930082524 0.9471459733722056
00000000: 48d8 3e2e 6584 ef3f 3f61 6372 624f f03f
00000010: 677c d05a 97f8 ec3f 70fa 5090 fbed ed3f
00000020: 8791 96c7 9d19 ee3f a67e 8512 054f ee3f

bias f8 [6]
0.0839873481345086 0.05550597450623773 -0.010174716877472196 -0.011149042206557302 -0.07966921540878492 -0.039063709546809246
00000000: 91f6 83e1 3180 b53f 104b 7972 476b ac3f
00000010: 0ae0 e061 7bd6 84bf b366 451d 4fd5 86bf
00000020: f9bf ada2 3365 b4bf ed8f ed95 2800 a4bf

running_mean f8 [6]
-0.26626637752107046 -0.21999926398108632 0.011904454005149397 0.003796442440276092 0.15257783471775865 0.23499215393136227
00000000: 838d de21 820a d1bf deae f895 ef28 ccbf
00000010: 04e4 07c5 5c61 883f e481 e883 b719 6f3f
00000020: b887 1aa5 ab87 c33f 8bd4 f90f 3914 ce3f

running_var f8 [6]
0.5819245749985352 0.24493729744448522 0.3059711348206009 0.250972266840691 0.3070098618016612 0.4311244388286928
00000000: e36f 4b49 209f e23f c01e 0cf9 1a5a cf3f
00000010: 68c4 64f4 0795 d33f 0329 92fb ed0f d03f
00000020: 1335 ffb0 0ca6 d33f 3ca3 51f5 8a97 db3f

weight f8 [12, 6, 9]
0.018781921621420856 -0.019636047003926245 -0.007056530950409029 -0.0978859212914432 -0.1414127026684588 -0.11060374015078209 -0.15523628259494243 -0.03350759885606092
-0.0003433668252584139 -0.07780857509497513 -0.07319400356139555 -0.04631604241340695 0.09794223886566043 -0.1165406575100895 0.056490195010222115 -0.08892376492121973
0.03544072616118735 -0.0515465923881883 -0.12359631799732074 0.09344122742788487 -0.07032860038706573 0.0986826504482205 -0.04945218490040152 -0.13363784077941296
-0.07950575465366878 -0.10592875424171024 0.0005105361580590878 -0.17137371153581052 -0.037896299786570074 0.04403172419290989 -0.0014824606611487032 -0.08175141784216183
0.031548215437587374 -0.07647379435374091 0.07735706877615012 -0.016430793175168334 0.05072175718612487 -0.038502631207582974 -0.08032921290760604 -0.030599622701461483
-0.1318721154099804 -0.005525181833852801 0.08518087346249363 -0.05015040147737396 0.08180421258833084 0.002447799795049487 -0.016637031434381392 0.022575581689826412
-0.047895843230062615 -0.18134397816407766 0.06444604165045212 -0.06626342313710454 0.11449418445199393 0.10975565277726172 -0.039735241227855614 0.005732507430220511
0.10808011529609038 0.045199559627728314 -0.08331015590699821 0.06265995269902723 0.09102780760335294 -0.11993793089820382 -0.07087832320708647 -0.03258047668190985
0.04598978267597386 -0.040161316630428365 0.1429040703905824 -0.007344124055959279 -0.11874652369399895 -0.002986689452627084 0.10830111220667019 -0.16649725202006876
0.10110338052258028 0.10977662832248772 0.09463519189701847 0.013791507059325213 -0.12266609165404752 0.08768674180218744 0.08470231723006176 0.13825569695848983
-0.0069450220963792305 0.01652806936728902 -0.04925502284110382 -0.07496909618544133 0.03046915816391548 -0.08537352409902184 -0.12625716235766343 -0.043124014131780776
0.10447198958763274 0.16625849990394367 0.004674472520062635 0.00894312494981433 0.043382105818181964 0.002258184909796772 -0.04858183427115244 0.07296905285751591
-0.10570464504136315 0.1601007221439308 -0.0905200218520658 -0.03876244529402162 -0.11599490641189136 -0.011677535867410082 -0.08678866821582978 0.13658333092847252
0.12069748394189465 -0.11829150303704601 -0.11718883549904235 0.0755345349013317 0.00387163576381753 -0.08454578020898877 -0.08204170451542149 0.05421197502324421
0.043399297071894105 -0.08999045326980942 -0.11769947744589646 -0.12592054985472748 -0.0846574331377108 0.13071527757903298 -0.06338829613908886 0.11652274654751607
0.05870437945637474 -0.1636827518410899 -0.009816335645976837 -0.09188383396069894 0.12039100150008537 0.1258131435127955 -0.09148945266336793 0.16001551048871632
-0.0026885023021748404 -0.09899266427448099 -0.15794608648088082 0.12686511023561617 -0.12810036364591731 0.05499256836848548 -0.09285723798551544 -0.069354757607399
-0.0038292970723821027 0.011380738527110362 -0.09377896135013816 -0.11450137715070663 0.045608673597163 0.05730266163179783 0.1266303032873025 -0.028790123438911866
0.015553424769335165 0.07539619815404743 -0.09533739717719969 0.07208334791085365 0.1148940331903951 -0.06923980054867038 0.02658737319683675 0.03375801508166905
-0.08738652050932283 0.011820394884784237 -0.06974336712768432 0.10059629645433814 -0.12816366641984184 0.029451351325460434 -0.008752441522050588 0.11732956323008896
0.12562958356362866 -0.04237198066772074 0.017910420714881053 0.048661626174197746 -0.12675539463298696 -0.11583223920459323 -0.09166782824667678 0.10313814800654603
-0.018435232398663338 0.13215054131102616 0.14303925910732707 -0.020245111834981462 -0.03991063474583665 -0.13327152836692374 -0.14854623623346597 0.07191139267766154
-0.07135114689892308 -0.060358631952723535 -0.08749038772954087 0.13388723270749994 -0.09195662049786307 0.11976734080788023 0.07785549644937775 -0.13961187277484796
-0.024222334371658327 0.13166271850293607 -0.004696263829338943 -0.007112877879974474 -0.15510524588469718 -0.01232865737529984 0.04533504939007755 0.08297134599868876
-0.010983786047584553 -0.05780737647119082 0.14586593797304756 0.1320213427677927 -0.13989887556969222 0.03207596822941139 -0.11842474853595153 -0.03578304678915853
0.1355674876382837 -0.035918860066345405 -0.029109538327245135 0.03567951521552269 -0.14319326576527058 -0.15023256666578072 -0.032999568284462044 -0.016796423594967507
0.033875642685871454 0.09492982268781457 0.022967629284822513 0.023298403098523768 0.04648633802064536 -0.05440093862138083 -0.0577941199815146 -0.10839643046567986
-0.002338299234717798 0.1373740660103861 -0.04421297588899221 -0.05856039377152464 -0.08096142563152262 0.09939508064331488 -0.07564904284742917 -0.12085783470451038
0.024246871104104707 0.0087610588748521 0.1803263859552934 0.11372421991371792 0.13957052616623555 0.002396550920596201 0.014779376264844588 0.04563899954340968
-0.16909682934210551 0.07615736166479796 -0.04326216368249758 0.04166224573831986 0.05350757727232092 -0.02678538702224435 -0.08250045390261852 0.11234393900343129
0.0713971323782727 0.003517173897271439 -0.04507249334356602 -0.12102093235960096 -0.036396722539940085 -0.06844359029764915 0.006494391016470789 0.10283351695343862
0.025862736177518473 -0.020785498568907407 0.05219300435775615 0.05565012365552188 0.04852063207202237 0.10623971434174323 -0.020102635187039083 -0.01010494080876684
00000000: 35eb 7a6c 913b 933f f27d d1ce 781b 94bf
00000010: 7ac6 7b1a 4fe7 7cbf 1582 af3e 0d0f b9bf
00000020: ae99 99ba cf19 c2bf d64c c3d6 8650 bcbf
00000030: 1eee 7252 c8de c3bf 812f 8272 e827 a1bf
00000040: eed2 f648 bd80 36bf 749b 6145 43eb b3bf
00000050: 7c3b 8f9b d7bc b2bf f436 e47e bcb6 a7bf
00000060: 4735 d318 be12 b93f fb00 a9c8 9bd5 bdbf
00000070: 5f25 3a68 48ec ac3f 2c80 2c36 b5c3 b6bf
00000080: e419 9e6f 4925 a23f f615 0ea1 5064 aabf
00000090: b05a b41f 02a4 bfbf 019f e6a7 c3eb b73f
000000a0: 5cca a21e 0e01 b2bf ac92 5b24 4443 b93f
000000b0: 25d7 b9f9 cb51 a9bf cfeb d375 0b1b c1bf
000000c0: 8dd0 1438 7d5a b4bf 3196 2c97 251e bbbf
000000d0: 94d0 170d b0ba 403f 7960 38e3 92ef c5bf
000000e0: b309 72d0 2467 a3bf ae42 ca7e 538b a63f
000000f0: e0d2 a903 e449 58bf 9ca1 0832 a9ed b4bf
00000100: 546b 1a73 1627 a03f b816 c05d c993 b3bf
00000110: 780b 8240 accd b33f 73b8 56dd 3bd3 90bf
00000120: 18c0 9ec0 33f8 a93f ca6a b1eb 9db6 a3bf
00000130: bd01 5a8e 7490 b4bf ed42 17eb 8155 9fbf
00000140: 9658 787b 2fe1 c0bf b55d 7eb4 92a1 76bf
00000150: bb20 c4e9 69ce b53f c403 743c 50ad a9bf
00000160: faed bdf1 1ef1 b43f e4fc 2382 680d 643f
00000170: d11b a747 4c09 91bf 9b15 2fa4 0d1e 973f
00000180: 362e 93d0 cd85 a8bf bc47 c58b 4736 c7bf
00000190: face 3e29 897f b03f d87c 4bc3 a3f6 b0bf
000001a0: 8bb2 cda9 7d4f bd3f 97be 3a4b f218 bc3f
000001b0: ea05 2573 2d58 a4bf b16f fd3e f87a 773f
000001c0: 0e6c 8b70 23ab bb3f 7815 ca8c 6524 a73f
000001d0: 7193 0b7b d053 b5bf 7f79 9c8f 7b0a b03f
000001e0: d8d7 ae30 994d b73f 30f8 c192 40b4 bebf
000001f0: 0375 2bf0 1425 b2bf 4b7d ac63 63ae a0bf
00000200: bf3f 1609 f98b a73f 36e6 fb2a 0690 a4bf
00000210: 907b 653a ae4a c23f e8b4 354a df14 7ebf
00000220: b787 c713 2c66 bebf 7405 b7b0 8a77 68bf
00000230: a24e 0c27 9fb9 bb3f 8a68 262e c84f c5bf
00000240: e009 dc40 e9e1 b93f 929e 8234 521a bc3f
00000250: bc95 3f0e 033a b83f 4c43 42be b83e 8c3f
00000260: 3876 fb83 0b67 bfbf 044c 5568 a372 b63f
00000270: 3b06 6612 0daf b53f 3811 76d8 5cb2 c13f
00000280: 5d15 622c 6272 7cbf 2317 98f5 bbec 903f
00000290: 0e55 8850 f437 a9bf 07c0 53b8 2c31 b3bf
000002a0: 9e15 6797 4e33 9f3f cd16 f30d 0adb b5bf
000002b0: 6a20 9bd7 3129 c0bf fd89 bccc 5914 a6bf
000002c0: d27e a022 adbe ba3f 937d e261 f547 c53f
000002d0: b573 9829 8a25 733f cdcb 77e9 c550 823f
000002e0: f7ff 70eb 2d36 a63f d7ac bfca c17f 623f
000002f0: 2aa3 bfda b7df a8bf eba3 a48f 19ae b23f
00000300: dae9 7ca9 750f bbbf 114b d632 2e7e c43f
00000310: 4be2 7cf5 512c b7bf a09d b3d5 abd8 a3bf
00000320: d8a9 8a99 d7b1 bdbf d3e8 2f55 64ea 87bf
00000330: 8a7f a63b c837 b6bf d01d c205 907b c13f
00000340: 936b 3dc2 07e6 be3f 0555 f018 5a48 bebf
00000350: d8b9 ec67 1600 bebf 93aa 1e35 3b56 b33f
00000360: d495 9a9f 68b7 6f3f 5b2d 03d1 caa4 b5bf
00000370: c944 cd65 af00 b5bf a884 8d07 acc1 ab3f
00000380: 78b4 2fc3 6e38 a63f fcfc be45 9d09 b7bf
00000390: 16ec 628e 8d21 bebf 359c c221 2a1e c0bf
000003a0: 1195 b00a 1cac b5bf 9f0e 2539 47bb c03f
000003b0: 34d6 dd22 373a b0bf c263 a949 6fd4 bd3f
000003c0: 2f51 cb1b 800e ae3f 6fd3 0971 8ef3 c4bf
000003d0: 803a 8744 961a 84bf 846d e4ed b285 b7bf
000003e0: 15f1 2cd6 f1d1 be3f 44af 6524 a51a c03f
000003f0: 273c 1e4f da6b b7bf 946d 3364 637b c43f
00000400: aa66 d1ae 3206 66bf 5351 9a4f 9557 b9bf
00000410: 98b8 fbcd 9337 c4bf 6f92 bbad 1d3d c03f
00000420: 9282 3bbc 9765 c0bf 37d5 5465 fc27 ac3f
00000430: cd3c 58f0 7dc5 b7bf d3eb bebf 3bc1 b1bf
00000440: f05d 2936 9e5e 6fbf a3e3 39de c84e 873f
00000450: a63b 0de4 e501 b8bf 3091 3556 f64f bdbf
00000460: bc0a 0723 055a a73f ca59 5d43 c656 ad3f
00000470: 6398 a6f9 6b35 c03f 84c2 787a 287b 9dbf
00000480: 72fc cc55 79da 8f3f 817a 504d 2a4d b33f
00000490: d83a f61a 0868 b8bf a501 dde5 0d74 b23f
000004a0: cceb 0e03 b269 bd3f 7627 f016 b3b9 b1bf
000004b0: 93c4 7769 b839 9b3f 8add 8105 bb48 a13f
000004c0: e8e2 b287 f65e b6bf 34cb a58b 4a35 883f
000004d0: ad23 ed88 b3da b1bf 13bf 5ecb adc0 b93f
000004e0: a282 e7c1 aa67 c0bf 4b3d 10bb 7e28 9e3f
000004f0: 8b64 c7d0 ccec 81bf bb5c ed6c 4f09 be3f
00000500: e56e 6854 a114 c03f 201e 78be c7b1 a5bf
00000510: c87c e9fc 1b57 923f eb09 fa39 2dea a83f
00000520: 0227 4551 8539 c0bf 04c8 347f 2ea7 bdbf
00000530: c331 6af4 8a77 b7bf bc7a a8fc 4267 ba3f
00000540: 2d55 fc80 afe0 92bf d62e 8a16 4fea c03f
00000550: 307c f445 1c4f c23f 22c0 f074 22bb 94bf
00000560: bdef fdad 2a6f a4bf b274 e99b 0a0f c1bf
00000570: 3887 4825 9003 c3bf 9fa7 c2f7 c868 b23f
00000580: f884 769a 1144 b2bf d457 899c 53e7 aebf
00000590: c842 0322 c565 b6bf dd52 ea82 3723 c13f
000005a0: a462 b015 788a b7bf 4a13 e68b 12a9 be3f
000005b0: 2a5d 107b 56ee b33f b3c3 d945 cdde c1bf
000005c0: 0011 d657 bdcd 98bf cb49 09ef 52da c03f
000005d0: 6764 f7b8 633c 73bf e2b8 ff9d 6422 7dbf
000005e0: dba3 411b 7dda c3bf 7011 d861 c43f 89bf
000005f0: 0961 fcd4 2736 a73f b3c8 9131 9c3d b53f
00000600: 8695 e2ce aa7e 86bf 1f99 d2ae ed98 adbf
00000610: c7e8 982c bcab c23f fee4 c74a 13e6 c03f
00000620: 0ad5 a8d3 34e8 c1bf a0d2 10e5 426c a03f
00000630: 40ba ff95 1551 bebf 6cdd 6bcf 2752 a2bf
00000640: 0656 e782 465a c13f c5cf 96f2 f463 a2bf
00000650: 17fd 770c e4ce 9dbf 7ec1 f9dd 9544 a23f
00000660: 2811 bc2c 2854 c2bf 5ad4 4f1c d23a c3bf
00000670: 50b5 20c5 51e5 a0bf 2bdf 1ee8 1433 91bf
00000680: 5800 eff2 2558 a13f 4ff7 db23 524d b83f
00000690: 9771 9482 d384 973f d0c1 6d5d 89db 973f
000006a0: acd9 04ab 0ecd a73f fe45 8098 70da abbf
000006b0: 5c83 71de 3097 adbf 7b6d da53 debf bbbf
000006c0: 9557 b9d7 c427 63bf c6a4 6a30 7995 c13f
000006d0: c10d 014b 15a3 a6bf 7cdd 2dc0 a0fb adbf
000006e0: 562e 5353 e3b9 b4bf d50e bfbc f471 b93f
000006f0: 8bdf 0055 bc5d b3bf 5f70 85ff 89f0 bebf
00000700: 9a98 b0f9 2bd4 983f 723d c46a 51f1 813f
00000710: 7d55 245d ef14 c73f 46e3 4acd 071d bd3f
00000720: 944b af6e 72dd c13f f116 787a eea1 633f
00000730: 38c9 b34d a644 8e3f c215 ecb4 fe5d a73f
00000740: 76d9 f003 f7a4 c5bf 0330 b381 0c7f b33f
00000750: 304f 5754 7526 a6bf 6b16 d9fd c054 a53f
00000760: 5114 f25c 5865 ab3f 8bc0 15e5 a06d 9bbf
00000770: 19ba 6aef bf1e b5bf 2e6e ec87 92c2 bc3f
00000780: efc5 971c 1547 b23f c7b9 9e5b 0cd0 6c3f
00000790: e336 b8e9 bd13 a7bf 8eac 9d52 3afb bebf
000007a0: b033 fb59 97a2 a2bf 7a00 f3e5 8485 b1bf
000007b0: 24f0 5ed0 dc99 7a3f fc67 3f20 4c53 ba3f
000007c0: 6923 45d8 c27b 9a3f 588a 5632 cb48 95bf
000007d0: 29d5 979d 0ab9 aa3f 4cd6 3c4a 2c7e ac3f
000007e0: 9c75 dc3f b2d7 a83f ec58 a2a2 8632 bb3f
000007f0: 8f5a c402 c995 94bf a1d1 6932 e6b1 84bf

weight f8 [12]
0.9851175248663985 0.9081928810714841 0.8969329213362816 0.9944696399136191 1.033471510363445 0.9526443106017521 0.93440702874864 1.0454556190959794
1.0487719240850777 0.9644684267505822 1.0098533646280203 0.9343193158161062
00000000: 9390 0030 1586 ef3f 722f 5584 ea0f ed3f
00000010: d00a 7bab acb3 ec3f 8d67 89fe b1d2 ef3f
00000020: 53bd 256c 1989 f03f e428 d8eb 0f7c ee3f
00000030: 1718 b491 a9e6 ed3f 94fc d6ab 2fba f03f
00000040: d288 ae11 c5c7 f03f e562 dde3 ecdc ee3f
00000050: 9a53 6d00 5c28 f03f d170 2e9f f1e5 ed3f

bias f8 [12]
0.10805736019056617 -0.013156223867295373 -0.05653795592912383 -0.03162966884705962 0.07145265234102349 -0.027917343016725844 0.018915252304950215 0.0339105594729477
0.07370199409952223 -0.06526977341972459 0.05946983866457355 -0.0589329596317411
00000000: 944e 1cac a5a9 bb3f 22b9 fd79 a6f1 8abf
00000010: 7384 65ff 8af2 acbf bc17 9092 c331 a0bf
00000020: 3064 0495 b84a b23f 3501 fe2c 5d96 9cbf
00000030: 2d70 2e18 855e 933f 8aca d98f b95c a13f
00000040: edb3 4e46 22de b23f c64a 4116 85b5 b0bf
00000050: 9f52 53a8 d472 ae3f b6b4 8cfc 752c aebf

running_mean f8 [12]
-0.47671884314012447 0.0549121948082005 -0.10037319949002889 -0.1855455268415571 0.029358114888325938 0.455617746174823 0.2458029250084575 -0.29290206948789904
0.009007001393915968 -0.038835592050883085 -0.37762886710619886 0.22474326932239883
00000000: 5a1f 2bc0 8f82 debf 7ba2 b481 731d ac3f
00000010: e95d 34d9 0eb2 b9bf d70e dab0 f4bf c7bf
00000020: 3a31 45bd 0d10 9e3f f813 d355 d728 dd3f
00000030: 5913 1662 7876 cf3f 5566 5852 e8be d2bf
00000040: bf0a 6043 4372 823f b505 8f3b 42e2 a3bf
00000050: 2fc9 8f44 122b d8bf 732f de2f 63c4 cc3f

running_var f8 [12]
0.30563693720657625 0.13942799128375308 0.10752169419274372 0.2716340100032129 0.09168665299834215 0.17209374129515817 0.2045666607825375 0.3638700703553222
0.04835364235131197 0.3526591248221282 0.13376611925875276 0.12242172330846883
00000000: 521e 703a 8e8f d33f f9f7 5ac3 c6d8 c13f
00000010: d118 2bb0 8a86 bb3f 1d7d 5c9d 7362 d13f
00000020: 5b8a 1bc8 c678 b73f 27c0 5aef 2a07 c63f
00000030: b4da f486 3d2f ca3f 45d6 0ab1 a549 d73f
00000040: da2d 1501 cfc1 a83f 37cf ef93 f791 d63f
00000050: 22bc c389 3f1f c13f a309 eeb1 0757 bf3f
